model_cnn.pth (torch, 434831 bytes, 8 tensors)

conv1.weight f4 [6, 3, 5, 5]
0	0xbcb853d5	-0.022500912
1	0x3d35954e	0.04433184
2	0x3d9d234f	0.0767275
3	0x3d9fad49	0.077967234
4	0x3b82ffa3	0.0039977594
5	0x3e30554a	0.17220035
6	0x3e51b9e2	0.20481065
7	0x3d877b25	0.06615285
8	0x3dcfadb7	0.10140555
9	0x3e22ed15	0.15910752
10	0x3debab30	0.11507261
11	0x3e4e73b4	0.20161325
12	0x3e638077	0.22216974
13	0x3e2d31a2	0.16913465
14	0x3e590b36	0.21195683
15	0x3dc0075f	0.09376406
16	0x3dcc195b	0.09965774
17	0x3e500b4a	0.20316806
18	0x3da11327	0.07864981
19	0x3e4bf126	0.1991621
20	0xbc42bc22	-0.011885675
21	0xbd1bf3e5	-0.038074393
22	0xbb3bcedc	-0.0028657233
23	0x3d04c9a6	0.03241887
24	0x3d815a03	0.063159965
25	0xbd10d2ee	-0.03535741
26	0x3d44c9de	0.048044078
27	0xbd654c1e	-0.055980794
28	0xbdc01b5b	-0.09380218
29	0x3c01f05b	0.00793084
30	0xbd050aab	-0.032480877
31	0xbdfd3616	-0.12363832
32	0xbd5e0f2f	-0.0542137
33	0x3c4f1014	0.012638111
34	0x3cd51210	0.02600959
35	0xbdeb1f72	-0.11480607
36	0x3d380729	0.044928703
37	0x3d662392	0.056186266
38	0xbd06b79d	-0.03288995
39	0xbd8bc324	-0.068243295
40	0xbdc0801d	-0.09399436
41	0xbdf8167b	-0.12113663
42	0xbdfb593e	-0.12272881
43	0x3c0de713	0.008661049
44	0xbc46c8c2	-0.012132825
45	0x3d5ce774	0.05393167
46	0xbddd3730	-0.10801542
47	0xbe12a0b0	-0.1431911
48	0xbccb35ba	-0.024805892
49	0xbdc423cb	-0.095771395
50	0x3d0dc606	0.034612678
51	0xbdcba5c8	-0.0994373
52	0xbda97666	-0.08274536
53	0x3c875213	0.016518628
54	0xbd67930b	-0.056536715
55	0xbddb3b26	-0.10704641
56	0xbd221c01	-0.039577488
57	0x3d3179f0	0.04332918
58	0xbc99691c	-0.018726878
59	0xbcdb486c	-0.026767932
60	0xbd40fdac	-0.04711692
61	0xbe1857e4	-0.14877278
62	0xbdf28f3e	-0.118437275
63	0xbc646177	-0.013939253
64	0xbe04129e	-0.12897727
65	0xbd1c5b5c	-0.038173065
66	0xbdb2ddad	-0.087336875
67	0xbd59b880	-0.05315447
68	0xbd3ac2ac	-0.04559581
69	0xbda73d4e	-0.0816599
70	0xbc9f1d57	-0.01942317
71	0x3d134354	0.03595288
72	0xbb7c6b05	-0.0038515937
73	0xbd2741ef	-0.040834364
74	0x3d3d338f	0.04619175
75	0xbe135371	-0.14387299
76	0xbd8bfaff	-0.06834983
77	0x3d5d2e64	0.05399932
78	0xbce301fa	-0.027710903
79	0x3d90d881	0.07072545
80	0xbd7670e6	-0.060166262
81	0x3cf253c5	0.02958096
82	0xbd3e330f	-0.046435412
83	0x3c7c0aa8	0.0153834
84	0xbdc93f92	-0.09826578
85	0x3c68c431	0.014206932
86	0xbe0114a1	-0.12605526
87	0xbe07a00a	-0.13244644
88	0xbe2d9b08	-0.16953671
89	0xbc0fdee2	-0.008781167
90	0x3cc0baef	0.023526637
91	0x3d5b922d	0.0536062
92	0xbcbc54ae	-0.022989597
93	0xbd503910	-0.05083567
94	0xbde78a25	-0.11305646
95	0xbd9e04e3	-0.07715776
96	0x3ca052df	0.019570766
97	0xba4b4d93	-0.0007755395
98	0xbcae4f80	-0.021278143
99	0x3d1f8ee7	0.03895464
100	0xbdb9c306	-0.09070401
101	0xbde9c755	-0.11414973
102	0x3d6b4b39	0.057444785
103	0x3d523751	0.051322285
104	0xbc28afe6	-0.010295844
105	0x3cd6b955	0.02621142
106	0x3ddd4eef	0.10806071
107	0x3d57154d	0.05251055
108	0x3d29d6c1	0.04146457
109	0x3b7bbfe2	0.0038413932
110	0xbe190321	-0.149426
111	0xbd63022e	-0.055422
112	0xbd92c01c	-0.07165548
113	0xbe12eb1e	-0.14347503
114	0x3c10cfa7	0.008838571
115	0xbbfa3bd2	-0.0076365257
116	0xbe09b76f	-0.1344888
117	0xbda0b573	-0.07847109
118	0xbe43db8f	-0.19126724
119	0xbe339da3	-0.17540602
120	0x3c8471fe	0.016167637
121	0x3c7aa41c	0.015297916
122	0xbe238ffb	-0.15972893
123	0xbe0de977	-0.13858591
124	0xbe1e8aaf	-0.15482591
125	0xbdafec1b	-0.085899554
126	0x3dd227b9	0.10261483
127	0x3d4898e4	0.048973933
128	0x3e136bdf	0.14396618
129	0x3dc18bea	0.094505146
130	0x3e2a9074	0.16656667
131	0x3db3dd0d	0.087823965
132	0x3e077c0b	0.13230912
133	0x3e69256d	0.22768183
134	0x3e6294bd	0.22127052
135	0x3e26d4d2	0.16292122
136	0x3e362f38	0.1779145
137	0x3e4dee16	0.20110354
138	0x3e84cd86	0.25938052
139	0x3e40de2f	0.18834756
140	0x3dd2e359	0.102972694
141	0xbc942d0c	-0.018087886
142	0x3ce6f005	0.028190622
143	0xbc9b4ae5	-0.018956611
144	0x3e0f5403	0.13996892
145	0x3db7aea5	0.08968858
146	0x3d7ab93b	0.061211806
147	0xbd8b5c42	-0.06804706
148	0x3d237ed5	0.03991588
149	0xbd7401a1	-0.059571866
150	0xbe0880bd	-0.1333036
151	0xbd9f8295	-0.077885784
152	0x3db59071	0.08865441
153	0xbd3f6f82	-0.0467372
154	0xbcd144b8	-0.025545463
155	0xbdaedff5	-0.0853881
156	0x3da525dc	0.08063862
157	0xbd7eedbe	-0.062238447
158	0xbe85ac10	-0.26107836
159	0x3de6a041	0.11261035
160	0xbe4a97ae	-0.19784424
161	0xbd94e005	-0.07269291
162	0xbde4793f	-0.11155938
163	0xbdb6a316	-0.08917825
164	0x3db0f4f6	0.086404726
165	0xbe599e63	-0.21251826
166	0x3ca26c0d	0.019826913
167	0x3e122202	0.14270785
168	0x3d88b7d8	0.066756904
169	0x3d9823d2	0.07428707
170	0xbdac5ae1	-0.08415771
171	0x3dcf4a39	0.10121579
172	0x3b2d5f99	0.0026454686
173	0xbced8299	-0.028992938
174	0xbe1abdaf	-0.15111421
175	0x3da3ceb6	0.07998411
176	0x3dfdbefb	0.12389942
177	0x3e5edb29	0.2176329
178	0x3d99d5d4	0.075114876
179	0xbd1f0ee7	-0.03883257
180	0x3dea582f	0.11442601
181	0x3e18fb89	0.14939703
182	0x3e1923e6	0.149551
183	0xbdbf5a78	-0.093434274
184	0x3e540ac7	0.20707236
185	0x3cb9afbc	0.022666804
186	0x3e13da54	0.14438754
187	0x3c842912	0.016132865
188	0xbd73d03d	-0.059524763
189	0x3dd9b7ae	0.10630737
190	0x3cf145b4	0.029452182
191	0x3d4ff926	0.050774716
192	0x3e92ec71	0.28696015
193	0x3cb16195	0.021652976
194	0xbc5f1743	-0.013616386
195	0x3df7a9ca	0.120929316
196	0x3e7ceb2e	0.24699089
197	0x3c665631	0.014058636
198	0x3c995a83	0.018719917
199	0xbc8cb9ce	-0.017178442
200	0x3d14b0b6	0.036301337
201	0xbe1dde9b	-0.15416948
202	0xbd5d55ee	-0.054037027
203	0xbe0d98d1	-0.13827826
204	0x3d000536	0.03125497
205	0x3be9e12a	0.0071374374
206	0x3c78d05b	0.015186395
207	0xbd6951c3	-0.05696274
208	0xbe29747e	-0.16548344
209	0xbca0db78	-0.0196359
210	0xbe2ad24c	-0.16681784
211	0x381223a2	3.48423e-05
212	0xbdf70591	-0.120616086
213	0xbe1309f4	-0.14359266
214	0x3d4d1d2a	0.05007664
215	0x3b9ec2b5	0.004844988
216	0xbd3da664	-0.04630126
217	0x3c5fca76	0.01365911
218	0x3bfaa12a	0.007648607
219	0x3dcd62e8	0.100286305
220	0xbdfedbbe	-0.12444256
221	0x3dd16e47	0.10226112
222	0xbe3b27fc	-0.18276972
223	0xbdbdfe95	-0.09277073
224	0xbde925ad	-0.11384139
225	0x3dbb2aed	0.09139047
226	0x3deedd72	0.11663331
227	0x3e092a3d	0.13395019
228	0xbc914a12	-0.017735515
229	0x3db48fd2	0.08816494
230	0x3d35aaee	0.044352464
231	0x3e47813a	0.1948289
232	0x3d9b5739	0.07584996
233	0x3b23ed73	0.0025013357
234	0x3d481115	0.048844416
235	0x3e34ed8a	0.17668739
236	0x3dcedc64	0.1010063
237	0xbc8fcd68	-0.017554
238	0xbc9a236d	-0.01881572
239	0x3d63a8de	0.055580966
240	0x3d9f928e	0.07791625
241	0x3ae9e9d7	0.0017846179
242	0xbe4ac3a1	-0.19801189
243	0x3e0916a7	0.13387547
244	0x3e54301c	0.20721477
245	0x3dba249a	0.090890124
246	0xbe000663	-0.12502436
247	0xbe3f1eba	-0.18664065
248	0x3de0880d	0.109634496
249	0x3c955891	0.018230708
250	0xbc6eaaf2	-0.014567124
251	0xbda952a1	-0.08267713
252	0xbdfd9d11	-0.12383474
253	0xbe123700	-0.14278793
254	0xbd9f2438	-0.0777058
255	0xbd29b208	-0.04142955

conv1.bias f4 [6]
0	0xbd367541	-0.044545416
1	0x3a902afa	0.0010999136
2	0x3bd87b75	0.006606514
3	0x3dc9e5a7	0.09858256
4	0xbe3c5f54	-0.1839574
5	0x3bdfd57e	0.00683087

conv2.weight f4 [16, 6, 5, 5]
0	0xbd1834ab	-0.037159603
1	0x3d3a2521	0.045445565
2	0x3dd48853	0.10377564
3	0x3d2e1818	0.042503446
4	0xbd8dd512	-0.069254056
5	0xbca4a6b5	-0.020099023
6	0xbcba1a37	-0.022717578
7	0xbd64f94b	-0.055901807
8	0x3c1f373f	0.009717762
9	0xbcc39da2	-0.023878876
10	0xbdea15ce	-0.1142994
11	0x3d19f32f	0.037585434
12	0x3da3bcbe	0.07994984
13	0x3c883515	0.016626874
14	0x3c45dfe6	0.012077307
15	0xbdb9cabf	-0.09071874
16	0xbcd17a1f	-0.025570927
17	0x3dc240b5	0.09484998
18	0x3e2dd874	0.16977102
19	0xbd40d666	-0.047079466
20	0xbe11d573	-0.1424158
21	0xbc92adf7	-0.017905219
22	0x3d794c87	0.060863998
23	0x3db7c875	0.08973781
24	0xbd7ced9a	-0.061750032
25	0x3a8f570e	0.0010935978
26	0xbd4beef9	-0.04978845
27	0xbb381e08	-0.0028094072
28	0xbc7af2e9	-0.015316703
29	0xbe3273fb	-0.17427056
30	0x3e826871	0.25470307
31	0x3e2daac4	0.16959673
32	0xbd7decd7	-0.061993446
33	0xbdd531af	-0.10409867
34	0xbe961829	-0.29315308
35	0x3e9b6ffa	0.3035887
36	0x3e4d4e11	0.20049311
37	0xbdc1ba27	-0.09459334
38	0xbe5bc5c0	-0.21462154
39	0xbeb0f0f7	-0.34558842
40	0x3e847d37	0.2587678
41	0x3d43a32e	0.047763042
42	0x3c7e2f4d	0.015514207
43	0xbe67614d	-0.22595711
44	0xbe879a30	-0.26484823
45	0x3e1c7126	0.15277538
46	0x3d0c5975	0.034265
47	0x3c8a26ed	0.016864264
48	0xbd2301ab	-0.039796513
49	0xbdac5e8b	-0.0841647
50	0xbcf0655b	-0.029345205
51	0xbdb6c74e	-0.08924733
52	0xbcdbca83	-0.026829964
53	0xbcf57f7c	-0.029968016
54	0xbc9cd74d	-0.019145632
55	0xbd9c1c9b	-0.076226436
56	0xbdba3d6f	-0.09093749
57	0xbc8ec004	-0.017425545
58	0xbc99e9b0	-0.018788189
59	0xbd85d439	-0.06534619
60	0xbd33f834	-0.043937877
61	0xbdec822f	-0.11548268
62	0xbc71d065	-0.014759158
63	0x3d545afa	0.051844575
64	0x3d86911e	0.06570648
65	0xbdf8da09	-0.12150962
66	0x3c12538a	0.00893105
67	0x3d547011	0.051864687
68	0x3d286542	0.041112192
69	0x3d591898	0.05300197
70	0x3cb919c9	0.022595303
71	0x3cf02b8b	0.029317638
72	0x3bab41db	0.0052263564
73	0xbc542d30	-0.012950227
74	0x3e0225f3	0.12709789
75	0x3c8e16a5	0.017344782
76	0x3d8bfc2c	0.06835207
77	0xbd94ee28	-0.07271987
78	0xbdd8f170	-0.105929255
79	0xbe3a7125	-0.18207224
80	0xbca88951	-0.02057329
81	0xbe43988a	-0.19101158
82	0x3b96271b	0.0045822985
83	0xbd88eb19	-0.06685466
84	0xbe137362	-0.14399484
85	0xbdaee1cd	-0.08539162
86	0xbda5d66c	-0.08097538
87	0x3d15dace	0.03658562
88	0xbb8df6b0	-0.004332386
89	0xbd1bd2b4	-0.03804274
90	0xbd7e6650	-0.06210929
91	0xbc8aced4	-0.016944326
92	0xbdb0dbc4	-0.08635667
93	0xbce736a0	-0.02822429
94	0xbd959c2a	-0.073051766
95	0x3db61caa	0.08892186
96	0x3d263b1a	0.040583707
97	0xbd4eec7e	-0.050518505
98	0xbd173889	-0.03691915
99	0xb969ac31	-0.00022284758
100	0x3e00948d	0.12556668
101	0x3e2d3123	0.16913275
102	0xbcafea93	-0.021474158
103	0xbd52be09	-0.051450763
104	0xbe323bc3	-0.1740561
105	0x3e4b8feb	0.19879119
106	0x3e7fd694	0.24984199
107	0x3d88be5a	0.06676932
108	0xbe73dce7	-0.23814736
109	0xbe7b42ca	-0.24537197
110	0x3e98da82	0.29854208
111	0x3e4f58d3	0.20248728
112	0x3d654389	0.05597261
113	0xbe8ec91d	-0.27887812
114	0xbec93028	-0.39294553
115	0x3e8282f3	0.2549053
116	0x3e334c85	0.17509659
117	0xbddbffbf	-0.10742139
118	0xbe194b54	-0.14970142
119	0xbea74f1f	-0.32677552
120	0x3e84b41e	0.25918669
121	0x3e269be9	0.16270413
122	0xbd4c1972	-0.049828954
123	0xbdc50141	-0.0961938
124	0xbe5725ae	-0.21010467
125	0x3d126eb8	0.03575012
126	0x3d29f37d	0.041491974
127	0xbcc77dd5	-0.024351994
128	0xbd32c166	-0.04364147
129	0x3def6980	0.116900444
130	0xbcbb90d5	-0.02289621
131	0xbca17606	-0.019709598
132	0xbda5cc7b	-0.08095642
133	0xbcf84a7a	-0.03030895
134	0x3e0264df	0.12733792
135	0xbd5632d7	-0.05229458
136	0xbe0b7bf5	-0.13621505
137	0x395f733e	0.00021309868
138	0xbd60a67e	-0.05484628
139	0x3e23b8f6	0.15988526
140	0xbd4b6409	-0.049655948
141	0xbd6ea194	-0.05825956
142	0xbd89610d	-0.06707964
143	0xbc3b8059	-0.011444175
144	0x3e185069	0.14874424
145	0xbdd870f8	-0.10568422
146	0xbcdb95bf	-0.026804803
147	0xbd490390	-0.049075663
148	0xbda9ff55	-0.08300654
149	0x3db1c1c7	0.08679538
150	0x3dbc905b	0.09207221
151	0x3cee61f8	0.02909945
152	0xbc8599a2	-0.01630861
153	0xbd8ea042	-0.069641605
154	0xbe170c26	-0.14750728
155	0x3d4290cd	0.047501374
156	0xbd19a293	-0.03750856
157	0xbc0afedc	-0.008483615
158	0xbe38d86c	-0.18051308
159	0xbe4364b5	-0.19081385
160	0x3e48506f	0.19561933
161	0x3db2137f	0.08695125
162	0xbd7a21b8	-0.061067313
163	0xbe34c4f7	-0.17653261
164	0xbea32909	-0.31867245
165	0x3e9c4d6f	0.30527827
166	0x3e603864	0.21896511
167	0xba96ac15	-0.0011495376
168	0xbdc62468	-0.09674913
169	0xbe595f78	-0.21227825
170	0x3eaf1ae1	0.34200194
171	0x3e848c67	0.25888368
172	0x3d1fc1d7	0.03900322
173	0xbe10e8f1	-0.1415136
174	0xbe47f11a	-0.19525567
175	0x3e299941	0.16562368
176	0x3d46476a	0.04840795
177	0x3d72178c	0.059104487
178	0x3de95334	0.11392823
179	0x3cb11f04	0.021621235
180	0xbd2fd64c	-0.04292898
181	0xbdad0776	-0.08448689
182	0xbd8ab163	-0.06772115
183	0xbc949ff6	-0.018142682
184	0x3d0ee1bd	0.03488325
185	0xbe567153	-0.20941667
186	0xbd0f46d1	-0.034979645
187	0xbd6df265	-0.058092494
188	0x3d9a54e1	0.075357206
189	0x3dcfa167	0.10138207
190	0xbdcc28c3	-0.09968712
191	0xbe46aaad	-0.19401045
192	0xbd89ccfd	-0.067285515
193	0x3e061c87	0.1309682
194	0x3e264016	0.16235384
195	0xbd59e543	-0.053197157
196	0xbd61a1a8	-0.055085808
197	0xbd4969fa	-0.049173333
198	0x3e25b489	0.1618215
199	0x3e89c73c	0.26909816
200	0x3b5579fb	0.0032573927
201	0xbc8bcc68	-0.017065242
202	0xbd7ff52d	-0.062489677
203	0x3cbf272f	0.023334114
204	0xbd1f3314	-0.03886707
205	0x3cdd1610	0.02698806
206	0x3d301926	0.042992733
207	0xbd31c221	-0.043398026
208	0xbd923f2c	-0.07140955
209	0xbdb9490c	-0.09047136
210	0x3df73ec4	0.120725185
211	0x3c905fdd	0.017623836
212	0xbcc01d95	-0.023451606
213	0xbe00b435	-0.12568744
214	0xbd970729	-0.073744126
215	0x3e13df37	0.14440618
216	0x3d5204b3	0.051274013
217	0xbb94cdfa	-0.004541156
218	0xbdf07638	-0.117412984
219	0xbca107ba	-0.019657005
220	0x3e52acd2	0.20573738
221	0x3e0350a7	0.12823735
222	0x3c167c5b	0.009184922
223	0x3d06dad0	0.03292352
224	0xbd0e6fd9	-0.034774635
225	0xbe675164	-0.22589642
226	0xbe305be0	-0.17222548
227	0xbd131124	-0.03590502
228	0xbd201d38	-0.039090365
229	0xbdbb027f	-0.091313355
230	0x3d8520be	0.06500386
231	0x3c896582	0.016772036
232	0x3c0e99fd	0.008703706
233	0xbddbbce6	-0.10729389
234	0xbd521381	-0.05128813
235	0x3e413c94	0.18870765
236	0x3e4cea5d	0.20011277
237	0xbd88de56	-0.06683032
238	0xbdc5b729	-0.09654076
239	0xbdded79a	-0.108809665
240	0x3e396756	0.18105826
241	0x3e2f3480	0.17109871
242	0x3db885f8	0.090099275
243	0xbc6a480a	-0.014299402
244	0xbce37732	-0.027766798
245	0xbd6b1b9b	-0.057399374
246	0x3d3350f5	0.04377838
247	0xbd2712fd	-0.040789593
248	0xbdc463fe	-0.095893845
249	0xbe177326	-0.1479002
250	0x3db821c8	0.08990818
251	0x3c41c608	0.0118269995
252	0xbd508e39	-0.050916884
253	0xbdc0b7a9	-0.094100304
254	0xbca2762d	-0.019831741
255	0xbcd72196	-0.026261132

conv2.bias f4 [16]
0	0xbb0816e6	-0.0020765602
1	0x3e9f7a40	0.31147957
2	0x3e830ddd	0.25596514
3	0x3c0c77c3	0.008573475
4	0xbdb0c19e	-0.086306795
5	0x3e7a46a3	0.24441008
6	0xbe23afad	-0.15984984
7	0x3e06d7d0	0.13168263
8	0x3edbc190	0.42921114
9	0xbe829fe7	-0.2551262
10	0x3e1d19c2	0.15341857
11	0xbe394bb5	-0.18095286
12	0xbd3832d1	-0.044970337
13	0xbe5b4233	-0.21411972
14	0xbd803a9c	-0.06261179
15	0xbe2174ad	-0.15767165

fc1.weight f4 [256, 400]
0	0xbe3ecfd7	-0.18633972
1	0xbcd45237	-0.02591811
2	0xbd8a7423	-0.067604326
3	0xbdbaacb7	-0.09114974
4	0xbe48eaec	-0.19620866
5	0xbe72c66d	-0.23708506
6	0xbc1bea1e	-0.009516267
7	0xbe27f2a1	-0.1640115
8	0xbc3291cf	-0.010899021
9	0x3d8e9f6d	0.06964002
10	0xbe6b3a04	-0.2297135
11	0xbe5c7399	-0.21528472
12	0xbec8754e	-0.39151996
13	0xbd85fb69	-0.06542093
14	0x3e0d7f16	0.1381801
15	0xbda10b50	-0.07863486
16	0xbea8c06f	-0.32959315
17	0xbec9538e	-0.3932156
18	0xbdc7db8b	-0.097586714
19	0x3d9dbe9a	0.0770237
20	0x3dd11440	0.102089405
21	0xbe67ba45	-0.2262965
22	0xbe998d64	-0.29990685
23	0xbe7ddadd	-0.24790521
24	0x3e1930c7	0.14960013
25	0x3e402df0	0.18767524
26	0x3e802a94	0.25032485
27	0x3e4cdab8	0.2000531
28	0x3e5a809a	0.2133812
29	0x3bd0753b	0.006361631
30	0x3da250b1	0.07925547
31	0xbd4a9c18	-0.04946527
32	0x3d5993d8	0.05311951
33	0x3d0e77fd	0.0347824
34	0xbcf29296	-0.029610913
35	0xbdc56f88	-0.096404135
36	0xbd58561f	-0.052816506
37	0xbde8b3a0	-0.11362386
38	0xbd068153	-0.032838177
39	0x3d18bd30	0.0372898
40	0xbe6618e0	-0.22470427
41	0xbe52a6b8	-0.2057141
42	0xbe6ccbb8	-0.23124588
43	0xbe327f8c	-0.17431468
44	0xbda2b35c	-0.07944366
45	0xbe37d1cc	-0.17951125
46	0x3dbc960a	0.09208305
47	0x3c14904e	0.009067608
48	0xbe6bb2d4	-0.23017436
49	0xbda37e23	-0.07983043
50	0x3dc4bc97	0.09606283
51	0xbd35b407	-0.04436114
52	0x3d916fd4	0.07101408
53	0x3dc73754	0.0972735
54	0x3c140e21	0.009036572
55	0xbd921b55	-0.071341194
56	0xbe29ff68	-0.16601336
57	0xbd30a0d2	-0.04312212
58	0xbdde79e3	-0.10863092
59	0xbdb57031	-0.088592894
60	0xbe61de23	-0.22057395
61	0xbb50b11b	-0.0031843844
62	0x3cbf20a6	0.023330998
63	0xbdd88a5e	-0.105732664
64	0xbe1f236e	-0.15540859
65	0xbd4191ec	-0.047258303
66	0x3d8e46cc	0.06947097
67	0x3c68db66	0.014212465
68	0xbdae8692	-0.08521761
69	0xbc871e03	-0.016493803
70	0x3d2cf314	0.042224005
71	0x3cd852b1	0.026406618
72	0xbd8d7644	-0.06907323
73	0xbc96e89e	-0.018421467
74	0x3d527d69	0.05138913
75	0xbdded0c1	-0.108796604
76	0xbdc6d9a7	-0.09709483
77	0xbe14714f	-0.14496349
78	0xbe4efd48	-0.20213807
79	0xbe66ba67	-0.22532044
80	0x3d4c5f75	0.049895722
81	0x3c2ad555	0.010426839
82	0xbd86307c	-0.065522164
83	0xbe9fb43a	-0.3119219
84	0xbe8fa511	-0.28055623
85	0x3dae1d0a	0.085016325
86	0xbc86c690	-0.016452104
87	0xbd3700c6	-0.044678472
88	0xbc4db255	-0.012554725
89	0xbdc4788c	-0.09593305
90	0x3d0b1940	0.033959627
91	0xbc5b9ae3	-0.013403627
92	0xbdd9f9ef	-0.10643374
93	0xbdb3a4f6	-0.08771698
94	0xbe4a980b	-0.19784562
95	0x3c9b719b	0.01897507
96	0xbe7f5299	-0.24933852
97	0xbe007022	-0.12542775
98	0x3d90c60a	0.07069023
99	0xbdb3dc5b	-0.08782264
100	0xbd9c6fcf	-0.07638513
101	0xbc5edd20	-0.013602525
102	0xbcd23e77	-0.025664551
103	0xbdba0fdc	-0.09085056
104	0xbbdd0372	-0.0067447955
105	0x3e996064	0.29956353
106	0x3deb8c1a	0.115013316
107	0x3dd8f49f	0.10593533
108	0x3c0e9b8c	0.008704077
109	0x3d4efce2	0.050534137
110	0x3e388e50	0.18023038
111	0x3df8cf40	0.12148905
112	0x3d8f10c9	0.069856234
113	0x3e071706	0.13192376
114	0x3e51b9b6	0.20481
115	0x3dffd050	0.12490904
116	0xbc82307b	-0.015892258
117	0xbc91d1d7	-0.017800255
118	0xbbb63645	-0.0055606687
119	0x3dfbc48b	0.12293347
120	0x3e3e250f	0.18568824
121	0x3dc55aa0	0.09636426
122	0x3d7c4358	0.06158766
123	0x3e126cf8	0.14299381
124	0x3e530918	0.20608938
125	0xbd0f485d	-0.03498112
126	0xbd2a99e1	-0.041650657
127	0xbe389dcf	-0.18028949
128	0xbe1fad88	-0.1559354
129	0xbe326844	-0.17422587
130	0xbb9b7278	-0.0047438703
131	0xbd07bd8e	-0.033139758
132	0xbcb657c7	-0.022258652
133	0xbc7d6ceb	-0.015467863
134	0xbdc15e8e	-0.09441863
135	0xbd9c624f	-0.076359384
136	0xbe25bfcd	-0.16186447
137	0xbdb56a40	-0.08858156
138	0xbcd94945	-0.026524195
139	0xbdf9aa0a	-0.121906355
140	0xbe364694	-0.17800361
141	0xbdb81748	-0.089888155
142	0xbc802161	-0.015640916
143	0x3cb190d4	0.021675505
144	0x3cb4a90b	0.022053262
145	0xbe87cd45	-0.26523796
146	0xbe71bd19	-0.23607291
147	0xbd229383	-0.03969146
148	0xbd34d854	-0.04415162
149	0xbc7c3c29	-0.015395203
150	0x3e20f845	0.15719707
151	0x3de9c672	0.114148036
152	0x3d68eab4	0.056864455
153	0x3dbb01cf	0.09131204
154	0x3d64a596	0.055821978
155	0x3cdbaa19	0.026814507
156	0xbb2a5ea5	-0.0025996354
157	0xbd3b3f80	-0.045714855
158	0xbc2be7c7	-0.010492272
159	0xbcc54601	-0.024081232
160	0x3d97c84d	0.07411251
161	0x3de3566f	0.1110047
162	0x3e08f0b3	0.1337307
163	0x3e061afb	0.1309623
164	0xbd841ac9	-0.06450421
165	0x3d4649c0	0.048410177
166	0x3d21dfc6	0.039520048
167	0x3e099a5d	0.13437791
168	0x3df096ed	0.11747537
169	0xbc0d8f01	-0.008640052
170	0x3d374624	0.044744626
171	0x3b92ce41	0.004480154
172	0x3d96120e	0.073276624
173	0xbc864abd	-0.01639306
174	0xbd5adfe7	-0.053436186
175	0x3d98c346	0.074591205
176	0x3c8dc7f8	0.017307267
177	0x3d9a1fb9	0.07525582
178	0x3e032897	0.12808453
179	0x3e26c59c	0.1628632
180	0x3dc1a801	0.09455872
181	0x3c8fe282	0.017564062
182	0xbd0c1014	-0.03419502
183	0xbc64e5c7	-0.013970799
184	0xbca947e9	-0.020664172
185	0x3dfc089e	0.12306331
186	0xbcc56254	-0.024094738
187	0x3ca51f8f	0.02015665
188	0x3d83b01f	0.06430077
189	0x3ba8875f	0.0051430906
190	0x3bd28b38	0.0064252876
191	0x3d8f54f6	0.06998627
192	0x3d3c1c6e	0.04592555
193	0xbd674906	-0.056466125
194	0xbddbdb1b	-0.107351504
195	0x3d5f6882	0.054543026
196	0x3e14ea1f	0.14542435
197	0x3e0aeb13	0.13566236
198	0xbc9c012f	-0.019043533
199	0xbe0a8a44	-0.13529307
200	0x3d155208	0.036455184
201	0x3d3d4772	0.046210714
202	0x3db418bd	0.08793781
203	0x3dc28c6a	0.09499438
204	0x3dd69997	0.10478514
205	0x3dab89c2	0.083758846
206	0x3df6e345	0.12055067
207	0x3e3b8515	0.18312486
208	0x3dc531ab	0.09628614
209	0x3da11024	0.07864407
210	0x3d59c3cb	0.05316524
211	0x3e29a087	0.16565143
212	0x3dd9f0c4	0.106416255
213	0x3dcceba0	0.100058794
214	0xbcbd1b3f	-0.023084281
215	0xbd7c401e	-0.061584584
216	0x3cbcb4cb	0.023035428
217	0x3d520921	0.051278237
218	0xbc93cd80	-0.018042326
219	0xbe1a165c	-0.15047592
220	0x3d19c329	0.037539635
221	0x3e22f439	0.15913476
222	0x3e5ee3f5	0.21766646
223	0x3dbb21d2	0.0913731
224	0xbe43836c	-0.19093102
225	0x3de17224	0.11008099
226	0x3d921672	0.07133187
227	0x3e18998c	0.14902323
228	0x3d673b7c	0.056453213
229	0x3d8e46a6	0.06947069
230	0xbe09144e	-0.13386652
231	0xbe5e0be2	-0.2168422
232	0xbdb59cd4	-0.08867803
233	0xbe217d0b	-0.15770356
234	0xbe0b3dd5	-0.13597806
235	0xbe2c8fac	-0.16851681
236	0xbeb25ce7	-0.34836504
237	0xbe3abedf	-0.18236874
238	0xbe8e9cc9	-0.27853993
239	0xbdb02c0c	-0.08602151
240	0xbc4dffe5	-0.012573217
241	0x3d75b9f3	0.059991788
242	0xbd87baa9	-0.066273995
243	0xbe380bbc	-0.17973226
244	0xbe2c6d7c	-0.1683864
245	0x3d46a6c8	0.0484989
246	0x3d10daf3	0.035365056
247	0x3ca325ba	0.01991545
248	0xbd33355a	-0.043752052
249	0x3e029d09	0.12755217
250	0xbe7d8cbe	-0.2476072
251	0xbe2832b1	-0.16425587
252	0xbdd7cca7	-0.10537081
253	0xbe17d824	-0.14828545
254	0xbe119aae	-0.14219162
255	0xbd408dca	-0.04701022

fc1.bias f4 [256]
0	0x3ccd1099	0.025032328
1	0xbdf50892	-0.11964525
2	0x3e9d36a6	0.30705756
3	0xbb667500	-0.0035164952
4	0xbe968768	-0.29400182
5	0xbd6c7d8f	-0.05773693
6	0x3ea3150b	0.31851992
7	0x3c993cc0	0.018705726
8	0xbdf3d74b	-0.11906298
9	0x3f1fd311	0.62431437
10	0x3dc8a8bf	0.09797811
11	0x3e64c545	0.22340877
12	0xbe2bbb70	-0.1677072
13	0x3a1c4b86	0.00059621816
14	0xbd1fffcb	-0.039062303
15	0x3e06df93	0.13171224
16	0x3ed0e8e6	0.40802687
17	0xbd117289	-0.03550962
18	0xbc5d8c32	-0.013522195
19	0x3cdd38d4	0.027004637
20	0x3bc0f2a8	0.005888302
21	0x3df50fa8	0.11965877
22	0xbd55b40e	-0.052173667
23	0x3e187738	0.14889228
24	0x3d71e235	0.05905362
25	0xbb9a1336	-0.004701997
26	0xbd450b86	-0.048106693
27	0xbc75eb4d	-0.015009713
28	0x3eeee9d5	0.46662775
29	0x3eb62ea1	0.3558245
30	0xbd914db9	-0.070949025
31	0x3e3070ca	0.17230526
32	0xbd194b9b	-0.03742562
33	0xbc9c76c6	-0.019099604
34	0x3ed06af1	0.4070659
35	0xbd825012	-0.063629285
36	0x3d044dbc	0.032300696
37	0xbd4e61be	-0.050386183
38	0x3eb6b860	0.35687542
39	0x3ebe9736	0.3722474
40	0xbd702d9c	-0.058637246
41	0x3e6dad9f	0.23210762
42	0xbd00199c	-0.031274423
43	0xbee67ef6	-0.45018739
44	0xba8867b0	-0.0010406878
45	0xbcc6e7a7	-0.024280382
46	0x3cafbcf3	0.021452403
47	0x3dc87a5b	0.097889625
48	0xbd6079a8	-0.05480352
49	0x3e66b2e5	0.2252918
50	0x3eb895f8	0.36051917
51	0x3e54d922	0.20785955
52	0xbc23c8ee	-0.009996636
53	0x3e3e1861	0.18563987
54	0x3b3540a8	0.0027656946
55	0x3e627050	0.22113156
56	0x3e86044c	0.26175153
57	0x3e2aef63	0.16692881
58	0x3ea290a2	0.3175097
59	0x3e2a613b	0.16638653
60	0x3e254c82	0.16142467
61	0x3e88b457	0.26700088
62	0xbe66bfc4	-0.2253409
63	0xbd77d575	-0.060506303
64	0xbe12d4cb	-0.14338987
65	0xbd593202	-0.053026207
66	0xbb186053	-0.0023250773
67	0xbb80d99b	-0.0039321906
68	0xbd522f85	-0.05131485
69	0xbcd5b83f	-0.026088832
70	0xbbeb812d	-0.00718703
71	0xbd3caf3d	-0.046065558
72	0xbdd7250d	-0.10505114
73	0x3e6187a9	0.22024406
74	0xbd8beca5	-0.06832246
75	0x3ed5c8a3	0.41754636
76	0xbec7cece	-0.39024967
77	0xbd2ec5c8	-0.042669088
78	0xbc950db6	-0.018195014
79	0xbd4a96ad	-0.049460102
80	0xbe40b780	-0.1882
81	0x3eb629b1	0.35578683
82	0xbd8db749	-0.069197245
83	0x3c1e4630	0.009660289
84	0x3d50f5e6	0.051015757
85	0xbcd57c0f	-0.026060132
86	0x3e136288	0.14393055
87	0x3ec58e76	0.38585252
88	0x3e98c3ce	0.29836887
89	0x3ecad61e	0.39616483
90	0x3e4f0b79	0.2021922
91	0xbc87de63	-0.016585534
92	0x3e2db369	0.16962971
93	0xbed19484	-0.4093362
94	0x3eec94d3	0.46207294
95	0xba906ad6	-0.0011018168
96	0xbdc0620f	-0.09393703
97	0x3cb51d19	0.022108601
98	0xbd9c151d	-0.076212145
99	0x3c508204	0.012726311
100	0xbd2717ac	-0.04079406
101	0x3cd2466d	0.025668347
102	0xbcc502c8	-0.024049178
103	0x3e8b5a35	0.2721726
104	0xbdbc71ab	-0.09201368
105	0x3f02471a	0.5088974
106	0x3d9a2a9e	0.0752766
107	0x3c8e9386	0.017404329
108	0x3f013ed8	0.50486517
109	0x3e601019	0.21881141
110	0x3ed34084	0.4126016
111	0x3c981915	0.018566648
112	0xbde94c67	-0.11391526
113	0xbd4d38ef	-0.050103124
114	0xbe14b4b4	-0.14522058
115	0x3e197eda	0.14989796
116	0x3b202b78	0.0024439972
117	0xbd817b9c	-0.06322405
118	0xbd85ac4f	-0.06527006
119	0x3c3bc9a1	0.011461646
120	0xbd4d9f66	-0.050200842
121	0xbced1cf2	-0.028944466
122	0xb87dbd8a	-6.0496423e-05
123	0x3c68a3dd	0.014199224
124	0xbc86e6b1	-0.016467424
125	0x3c30e497	0.010796688
126	0xbe47e0ff	-0.19519423
127	0x3d24b298	0.040209383
128	0xbcc2adf3	-0.023764586
129	0x3e00c100	0.12573624
130	0x3e0b949e	0.13630912
131	0x3ef2f9f0	0.47456312
132	0x3e177fe3	0.14794879
133	0xbd9057c6	-0.070479915
134	0x3bd61a7f	0.0065339203
135	0xbd571f98	-0.052520365
136	0x3f19302c	0.5983913
137	0xbd6f49cf	-0.05842
138	0xbd65e9c4	-0.05613114
139	0xbdb9c31d	-0.09070418
140	0x3e1ab5cc	0.15108413
141	0xbd2c5acf	-0.04207879
142	0x3efc3b9e	0.49264234
143	0x3eb840b9	0.3598688
144	0xbd27d460	-0.04097402
145	0x3de3618d	0.11102591
146	0x3ec35aef	0.38155314
147	0x3db341a5	0.08752755
148	0x3d0ff6fc	0.035147652
149	0x3e96fc3f	0.29489323
150	0xbd6dac26	-0.0580255
151	0xbb964e13	-0.004586944
152	0xbd6736cb	-0.05644874
153	0xbd916b00	-0.07100487
154	0xbcb38dd8	-0.021918222
155	0xbd27c1f6	-0.04095646
156	0x3ed787ab	0.42095694
157	0xbc958e5e	-0.018256363
158	0xbd610439	-0.054935668
159	0xbcb96af0	-0.022634
160	0x3dbd7a87	0.09251886
161	0xbcd7750f	-0.026300935
162	0xbb2fd171	-0.0026827718
163	0x3e730b80	0.23734856
164	0xbe8b4b6d	-0.27205983
165	0x3f123e17	0.5712599
166	0xbd20655a	-0.039159156
167	0x3e9ba21f	0.30397126
168	0xbd21bf0b	-0.039488833
169	0xbe83ff10	-0.25780535
170	0x3d3e4bbc	0.046458945
171	0xbe19e1cc	-0.15027541
172	0x3c9cb0d9	0.019127296
173	0x3e3fe015	0.18737824
174	0x3f1b6031	0.6069365
175	0xbda39c59	-0.07988805
176	0xbd3ee8f8	-0.046608895
177	0x3ce043ae	0.027376022
178	0x3e7d4680	0.24733925
179	0xbd30b735	-0.04314347
180	0x3f16a069	0.58838516
181	0x3cc9f2ee	0.02465197
182	0xbd8af0ef	-0.06784236
183	0x3e3d4104	0.18481833
184	0xbd55e704	-0.052222267
185	0x3d8a3b55	0.06749598
186	0x3d8f5200	0.06998062
187	0xbb62f133	-0.003462863
188	0xbc4e78f0	-0.012602076
189	0xbd1d6028	-0.03842178
190	0xbe85eca5	-0.26157108
191	0xbda2661d	-0.07929633
192	0xbd63fa1b	-0.05565844
193	0xbdac6d1e	-0.0841925
194	0x3e6d2eee	0.23162434
195	0x3b5b01b8	0.0033417773
196	0xbd3f05d0	-0.046636403
197	0xbd110f83	-0.035415184
198	0xbd40243e	-0.046909563
199	0xbd85e6bd	-0.065381505
200	0xbe8b78c2	-0.27240568
201	0x3ecd61bd	0.4011363
202	0xbe22c25b	-0.15894453
203	0xbc5f32d2	-0.013622956
204	0xbd2893d7	-0.041156616
205	0xbcfa229d	-0.030534083
206	0x3ef1888b	0.47174487
207	0xbdb8919f	-0.0901215
208	0xbc65de78	-0.014030091
209	0x3e1f3bd0	0.1555016
210	0xbc93b1c9	-0.01802911
211	0x3e20e4ec	0.15712327
212	0xbda51a26	-0.08061628
213	0xbdb9bc89	-0.09069163
214	0xbee861dc	-0.4538716
215	0x3d58de59	0.052946422
216	0x3eeec057	0.4663112
217	0xbb7a7b76	-0.003822056
218	0x3e0fda9c	0.14048237
219	0xbd9be613	-0.076122425
220	0xbd130cc6	-0.035900854
221	0x3e619ca1	0.22032405
222	0x3ef0116b	0.4688829
223	0x3ecf574b	0.40496287
224	0x3ef1c640	0.47221565
225	0xbd0df0a8	-0.034653336
226	0x3dd34dd5	0.1031758
227	0x3d131856	0.03591188
228	0xbb80a8cb	-0.0039263717
229	0xbea52969	-0.32258156
230	0xbc957abb	-0.018246999
231	0x3dc7b500	0.0975132
232	0x3d3dac9a	0.046307184
233	0xbdf3c26c	-0.119023174
234	0xbca29e38	-0.019850835
235	0x3e19f81d	0.15036054
236	0xbc6df3af	-0.014523431
237	0xbe2c7952	-0.16843155
238	0x3efbbc98	0.49167323
239	0xbd872508	-0.0659886
240	0xbd018985	-0.03162529
241	0xbbaf5789	-0.005351011
242	0x3cc6978e	0.024242189
243	0xbba36427	-0.0049863043
244	0xbe7ffe84	-0.24999434
245	0x3eae1f5d	0.34008303
246	0x3ed0bf51	0.40770963
247	0x3dd5bc20	0.104362726
248	0x3e4ce2d1	0.20008399
249	0xbe82a6b6	-0.25517815
250	0xbe7be8ba	-0.24600497
251	0xbdd73607	-0.10508352
252	0xbd1bbcd2	-0.03802187
253	0x3d144c75	0.036205728
254	0xbbf58f94	-0.0074939225
255	0x3c460346	0.012085741

fc2.weight f4 [10, 256]
0	0x3db0dd43	0.08635952
1	0x3d8bab6f	0.06819808
2	0x3d830ac6	0.06398539
3	0x3c0991f8	0.008396618
4	0xbd26ca38	-0.040720195
5	0x3d2c672e	0.042090587
6	0x3e1d3372	0.15351656
7	0x3cab8ba0	0.020940602
8	0x3d82d60b	0.06388482
9	0xbe4a7fcf	-0.19775318
10	0x3d2ec4e7	0.04266825
11	0x3db4acab	0.08821996
12	0x3be24597	0.0069052684
13	0x3cc14cf3	0.023596263
14	0x3d1af8af	0.03783482
15	0xbc0562b2	-0.008141207
16	0xbeb0803f	-0.34472844
17	0xbd1fb2bd	-0.038988817
18	0xbd0b5a43	-0.034021627
19	0xbc93040e	-0.01794627
20	0xbe8efaa3	-0.27925596
21	0xbd36a36a	-0.044589438
22	0xbde5ef2d	-0.1122726
23	0x3d58c39b	0.05292092
24	0x3e240a7c	0.16019624
25	0x3c89fb7c	0.01684355
26	0xbd501ae0	-0.05080688
27	0xbd362517	-0.044468965
28	0xbdb8d503	-0.09025004
29	0x3e00c602	0.12575534
30	0xbd458618	-0.048223585
31	0xbe2a51ca	-0.16632763
32	0xbe31da87	-0.17368518
33	0x3d36f08e	0.044663005
34	0x3e128b7f	0.14311026
35	0xbd61256c	-0.05496733
36	0x3a776815	0.00094378117
37	0x3e0d2ef3	0.13787441
38	0xbe81dc80	-0.2536354
39	0xbe77affa	-0.24188223
40	0xbd4fea12	-0.050760336
41	0xbdae09f1	-0.0849799
42	0x3bacf2b5	0.0052779564
43	0x3d633dc5	0.05547883
44	0x3d386d40	0.045026064
45	0xbd8a677b	-0.067580186
46	0xbd13cb97	-0.03608283
47	0xbe957194	-0.29188216
48	0x3cc5d1fc	0.02414798
49	0xbe73cdf8	-0.2380904
50	0xbe95e1e9	-0.29273918
51	0x3de1379e	0.10996936
52	0x3b62cbf6	0.0034606433
53	0xbdf38eef	-0.11892497
54	0x3b964218	0.0045855157
55	0x3e03faf1	0.12888695
56	0xbd85eebc	-0.065396756
57	0xbd393b3d	-0.04522251
58	0x3e0b2a38	0.13590324
59	0xbe539c9e	-0.20665213
60	0xbe71d320	-0.23615694
61	0x3cafdd34	0.021467783
62	0x3d4d98b0	0.050194442
63	0xbcd4ade1	-0.025961818
64	0x3d6e3295	0.058153708
65	0xbc945632	-0.018107507
66	0xbd20a105	-0.03921606
67	0x3d29daa0	0.041468263
68	0x3bb470da	0.005506617
69	0xbd846259	-0.06464071
70	0x3c9029be	0.01759803
71	0xbd0fb95f	-0.035088893
72	0xbd3bb1b2	-0.04582376
73	0xbe9fdf38	-0.3122499
74	0x3cfede06	0.031111728
75	0x3da5d8e3	0.080980085
76	0x3dcbe202	0.09955217
77	0xbcd751dc	-0.02628415
78	0xbdc681cb	-0.09692725
79	0xbd6e2192	-0.058137484
80	0x3e2a8697	0.16652904
81	0x3d248e1d	0.040174592
82	0x3ca9b92d	0.020718182
83	0xbcfd61ff	-0.030930517
84	0x3d82d6c2	0.06388618
85	0xbd0b0ee8	-0.033949763
86	0x3e42f810	0.19039941
87	0x3e163f39	0.14672555
88	0xbdebb2c4	-0.11508706
89	0x3d352947	0.04422882
90	0xbe051b6b	-0.1299874
91	0x3da6707e	0.08126925
92	0xbd81defb	-0.06341358
93	0x3e39ff94	0.18163902
94	0xbd6e508a	-0.058182277
95	0xbe030381	-0.12794305
96	0x3da50dbf	0.080592625
97	0x3d083447	0.03325298
98	0x3de5d8b8	0.112229764
99	0x3ca40a51	0.02002445
100	0xbd2ad674	-0.041708425
101	0xbd82a752	-0.0637957
102	0x3d60423b	0.054750662
103	0xbe0b19cf	-0.13584064
104	0x3d851f09	0.0650006
105	0xbe082fd5	-0.13299496
106	0x3d6c3021	0.057663087
107	0xbd400956	-0.046883903
108	0xbe8f1387	-0.27944586
109	0x3d205b60	0.039149642
110	0x3d6e9e9f	0.05825674
111	0xbd6044f3	-0.054753255
112	0xbd797ab2	-0.060908027
113	0x3c39f87d	0.011350748
114	0x3dc51098	0.09622306
115	0x3d44139c	0.047870263
116	0xbd254dea	-0.040357508
117	0xbdf2e85a	-0.11860724
118	0x3c51f8ff	0.012815713
119	0xbd6399e4	-0.055566683
120	0xbd3f6dfc	-0.04673575
121	0xbc364ed1	-0.01112719
122	0xbd1d663e	-0.038427584
123	0xbd886805	-0.06660465
124	0xbd292480	-0.041294575
125	0x3d23dd94	0.040006235
126	0x3d255f62	0.040374167
127	0x3da73e5e	0.081661925
128	0x3d1909ae	0.037362747
129	0x3dc96a75	0.09834758
130	0x3e307c80	0.17234993
131	0xbe49040f	-0.19630454
132	0xbeca1759	-0.39470938
133	0x3c971876	0.018444281
134	0xbda8f5b8	-0.08249992
135	0x3d1b1637	0.037862983
136	0x3cb4ce1d	0.022070939
137	0x3cc71c35	0.024305442
138	0xbb621d32	-0.0034502265
139	0xbda8b05f	-0.08236765
140	0xbc4f5ac5	-0.0126559185
141	0x3e407d43	0.18797784
142	0xbe029b19	-0.12754478
143	0xbd67c89f	-0.05658781
144	0x3e259b28	0.16172469
145	0xbe8b9320	-0.27260685
146	0xbd3c3d48	-0.04595688
147	0x3d4f7212	0.050645895
148	0xbc8770f1	-0.016533347
149	0x3e0b5c13	0.13609342
150	0x3c191b3f	0.009344875
151	0xbdccf135	-0.10006944
152	0x3ae2d00e	0.0017304437
153	0xbcf8139d	-0.03028279
154	0x3b65039c	0.0034944778
155	0x3d38b2e8	0.045092493
156	0x3ddeac00	0.1087265
157	0x3e13a9d6	0.14420256
158	0xbd6eb415	-0.05827721
159	0xbd82f7dc	-0.06394932
160	0x3d4686c8	0.04846838
161	0x3a81babd	0.0009897571
162	0x3cd717ad	0.026256407
163	0x3e079ac4	0.13242632
164	0x3d79094b	0.060799878
165	0x3dd5bee4	0.104368
166	0x3c583241	0.013195575
167	0x3e0c2de0	0.13689375
168	0x3c4f583b	0.012655313
169	0x3e77eb8d	0.24210949
170	0xbd8bc61b	-0.06824895
171	0xbcb3dde7	-0.021956397
172	0xbc0f2922	-0.008737834
173	0x3e04ca4e	0.12967798
174	0xbe841185	-0.25794616
175	0x3c0906a6	0.0083634015
176	0xbd3e678d	-0.046485472
177	0xbced682e	-0.02898034
178	0x3dec0f90	0.11526406
179	0xbd040268	-0.032228857
180	0xbdcc2da7	-0.09969645
181	0x3e05f331	0.13081051
182	0xbd9bf717	-0.07615488
183	0xbe591a17	-0.21201359
184	0xbd09bd48	-0.03362778
185	0xbe0508a1	-0.12991573
186	0x3d933fbc	0.07189891
187	0xb92dd943	-0.00016579502
188	0x3d2952fd	0.04133891
189	0x3c6f9cd7	0.014624796
190	0x3d26a8ab	0.040688198
191	0xbd1f4e94	-0.038893297
192	0xbd0cbd51	-0.034360234
193	0xbd3bfdd8	-0.04589638
194	0xbe99e26d	-0.30055562
195	0xbaddf563	-0.0016934093
196	0xbd82ff9d	-0.063964106
197	0xbbf0af2a	-0.0073451
198	0xbdf3f847	-0.119125895
199	0xbc7dc91a	-0.015489841
200	0xbbaf535c	-0.0053505134
201	0xbd40e941	-0.04709745
202	0x3d8d92b8	0.0691275
203	0xb92e58f8	-0.00016627077
204	0xbd60f19c	-0.054917917
205	0xbd1c1dca	-0.038114347
206	0x3e27dfcf	0.1639397
207	0xbd9ac8bb	-0.075578175
208	0xbd79538b	-0.06087069
209	0x3e13a171	0.14417054
210	0xbd657fdb	-0.056030136
211	0xbeb13095	-0.34607378
212	0xbbad742d	-0.0052933902
213	0xbc6c0608	-0.014405735
214	0x3c9c0274	0.019044138
215	0x3d8fae17	0.07015627
216	0xbe1b0dfd	-0.15142055
217	0x3d812ea9	0.06307728
218	0x3e04be2b	0.12963168
219	0x3d375a44	0.04476382
220	0xbcc1f0e7	-0.023674442
221	0x3e06cb71	0.13163544
222	0xbdd63205	-0.10458759
223	0xbdbd269f	-0.09235882
224	0xbe6c066e	-0.23049328
225	0xbdf0bf4a	-0.117552355
226	0xbdf47b8d	-0.11937628
227	0xbc124b8b	-0.008929144
228	0x3d59a545	0.05313613
229	0x3d4c3ef2	0.049864717
230	0xbe1b51e0	-0.15167952
231	0x3d454cd3	0.04816897
232	0x3db4e3cb	0.088325106
233	0x3df86bde	0.12129949
234	0xba8f0fc3	-0.0010914732
235	0x3cb71f33	0.022353744
236	0x3ac807b0	0.001526108
237	0xbe075423	-0.1321569
238	0xbdd1a898	-0.10237235
239	0xbcd71d60	-0.026259124
240	0xbde7f0da	-0.11325236
241	0xbac7059b	-0.0015184166
242	0xbd9c06f4	-0.07618514
243	0xbc53a8dc	-0.012918677
244	0x3cfec017	0.031097455
245	0x3d310bb2	0.043224044
246	0x3d925d2f	0.071466796
247	0xbbb2604f	-0.00544361
248	0xbe27c6b0	-0.16384387
249	0x3d39a241	0.045320753
250	0x3c6aeaf5	0.014338245
251	0xbd9e710b	-0.07736405
252	0xbce32e47	-0.027732028
253	0xbbd7d102	-0.006586195
254	0x3d897f09	0.06713683
255	0x3dbf28da	0.09333964

fc2.bias f4 [10]
0	0xbee00d36	-0.4376008
1	0xbec0dd56	-0.37668866
2	0xbe33abce	-0.17546007
3	0x3e8f6ec3	0.28014192
4	0x3e3c2a2e	0.18375465
5	0x3d864f5f	0.065581076
6	0xbc80aaad	-0.015706385
7	0xbdabf486	-0.083962485
8	0x3e39d092	0.1814597
9	0x3e05357d	0.13008685
